…
RandomErasing(p=0.25, mode=pixel, count=(1, 1))
---------------------------
reading from datapath /dev/shm/imagenet
Number of the class = 1000
Transform = 
Resize(size=256, interpolation=bicubic, max_size=None, antialias=True)
CenterCrop(size=(224, 224))
ToTensor()
Normalize(mean=(0.485, 0.456, 0.406), std=(0.229, 0.224, 0.225))
---------------------------
reading from datapath /dev/shm/imagenet
Number of the class = 1000
Sampler_train = <torch.utils.data.distributed.DistributedSampler object at 0x7fa4692a5950>
Mixup is activated!
Using EMA with decay = 0.99990000
Model = MSViT(
  (first_conv): ConvX(
    (conv): Conv2d(3, 24, kernel_size=(3, 3), stride=(2, 2), padding=(1, 1), bias=False)
    (norm): BatchNorm2d(24, eps=1e-05, momentum=0.1, affine=True, track_running_stats=True)
    (act): Act(
      (act): GELU(approximate='none')
    )
  )
  (layer1): Sequential(
    (0): CNNBlock(
      (main): Sequential(
        (0): ConvX(
          (conv): Conv2d(24, 192, kernel_size=(1, 1), stride=(1, 1), bias=False)
          (norm): BatchNorm2d(192, eps=1e-05, momentum=0.1, affine=True, track_running_stats=True)
          (act): Act(
            (act): GELU(approximate='none')
          )
        )
        (1): ConvX(
          (conv): Conv2d(192, 192, kernel_size=(3, 3), stride=(2, 2), padding=(1, 1), groups=48, bias=False)
          (norm): BatchNorm2d(192, eps=1e-05, momentum=0.1, affine=True, track_running_stats=True)
          (act): Act(
            (act): GELU(approximate='none')
          )
        )
        (2): SE(
          (se): Sequential(
            (0): AdaptiveAvgPool2d(output_size=1)
            (1): Conv2d(192, 24, kernel_size=(1, 1), stride=(1, 1))
            (2): ReLU()
            (3): Conv2d(24, 192, kernel_size=(1, 1), stride=(1, 1))
            (4): Sigmoid()
          )
        )
        (3): ConvX(
          (conv): Conv2d(192, 48, kernel_size=(1, 1), stride=(1, 1), bias=False)
          (norm): BatchNorm2d(48, eps=1e-05, momentum=0.1, affine=True, track_running_stats=True)
          (act): Act()
        )
      )
      (skip): Sequential(
        (0): ConvX(
          (conv): Conv2d(24, 24, kernel_size=(3, 3), stride=(2, 2), padding=(1, 1), groups=6, bias=False)
          (norm): BatchNorm2d(24, eps=1e-05, momentum=0.1, affine=True, track_running_stats=True)
          (act): Act()
        )
        (1): ConvX(
          (conv): Conv2d(24, 48, kernel_size=(1, 1), stride=(1, 1), bias=False)
          (norm): BatchNorm2d(48, eps=1e-05, momentum=0.1, affine=True, track_running_stats=True)
          (act): Act()
        )
      )
      (drop_path): Identity()
    )
    (1): CNNBlock(
      (main): Sequential(
        (0): ConvX(
          (conv): Conv2d(48, 192, kernel_size=(1, 1), stride=(1, 1), bias=False)
          (norm): BatchNorm2d(192, eps=1e-05, momentum=0.1, affine=True, track_running_stats=True)
          (act): Act(
            (act): GELU(approximate='none')
          )
        )
        (1): ConvX(
          (conv): Conv2d(192, 192, kernel_size=(3, 3), stride=(1, 1), padding=(1, 1), groups=48, bias=False)
          (norm): BatchNorm2d(192, eps=1e-05, momentum=0.1, affine=True, track_running_stats=True)
          (act): Act(
            (act): GELU(approximate='none')
          )
        )
        (2): SE(
          (se): Sequential(
            (0): AdaptiveAvgPool2d(output_size=1)
            (1): Conv2d(192, 24, kernel_size=(1, 1), stride=(1, 1))
            (2): ReLU()
            (3): Conv2d(24, 192, kernel_size=(1, 1), stride=(1, 1))
            (4): Sigmoid()
          )
        )
        (3): ConvX(
          (conv): Conv2d(192, 48, kernel_size=(1, 1), stride=(1, 1), bias=False)
          (norm): BatchNorm2d(48, eps=1e-05, momentum=0.1, affine=True, track_running_stats=True)
          (act): Act()
        )
      )
      (skip): Identity()
      (drop_path): DropPath(drop_prob=0.004)
    )
    (2): SparseAttentionBlock(
      (proj_in): ConvX(
        (conv): Conv2d(48, 48, kernel_size=(1, 1), stride=(1, 1), bias=False)
        (norm): BatchNorm2d(48, eps=1e-05, momentum=0.1, affine=True, track_running_stats=True)
        (act): Act()
      )
      (q): ConvX(
        (conv): Conv2d(48, 48, kernel_size=(3, 3), stride=(1, 1), padding=(1, 1), groups=12, bias=False)
        (norm): BatchNorm2d(48, eps=1e-05, momentum=0.1, affine=True, track_running_stats=True)
        (act): Act()
      )
      (k): ConvX(
        (conv): Conv2d(48, 48, kernel_size=(3, 3), stride=(1, 1), padding=(1, 1), groups=12, bias=False)
        (norm): BatchNorm2d(48, eps=1e-05, momentum=0.1, affine=True, track_running_stats=True)
        (act): Act()
      )
      (v): ConvX(
        (conv): Conv2d(48, 48, kernel_size=(3, 3), stride=(1, 1), padding=(1, 1), groups=12, bias=False)
        (norm): BatchNorm2d(48, eps=1e-05, momentum=0.1, affine=True, track_running_stats=True)
        (act): Act()
      )
      (sattn): SparseAttention(
        (att): Attention()
      )
      (proj): Sequential(
        (0): Act(
          (act): GELU(approximate='none')
        )
        (1): ConvX(
          (conv): Conv2d(48, 48, kernel_size=(1, 1), stride=(1, 1), bias=False)
          (norm): BatchNorm2d(48, eps=1e-05, momentum=0.1, affine=True, track_running_stats=True)
          (act): Act()
        )
      )
      (drop_path): DropPath(drop_prob=0.004)
    )
    (3): CNNBlock(
      (main): Sequential(
        (0): ConvX(
          (conv): Conv2d(48, 192, kernel_size=(1, 1), stride=(1, 1), bias=False)
          (norm): BatchNorm2d(192, eps=1e-05, momentum=0.1, affine=True, track_running_stats=True)
          (act): Act(
            (act): GELU(approximate='none')
          )
        )
        (1): ConvX(
          (conv): Conv2d(192, 192, kernel_size=(3, 3), stride=(1, 1), padding=(1, 1), groups=48, bias=False)
          (norm): BatchNorm2d(192, eps=1e-05, momentum=0.1, affine=True, track_running_stats=True)
          (act): Act(
            (act): GELU(approximate='none')
          )
        )
        (2): SE(
          (se): Sequential(
            (0): AdaptiveAvgPool2d(output_size=1)
            (1): Conv2d(192, 24, kernel_size=(1, 1), stride=(1, 1))
            (2): ReLU()
            (3): Conv2d(24, 192, kernel_size=(1, 1), stride=(1, 1))
            (4): Sigmoid()
          )
        )
        (3): ConvX(
          (conv): Conv2d(192, 48, kernel_size=(1, 1), stride=(1, 1), bias=False)
          (norm): BatchNorm2d(48, eps=1e-05, momentum=0.1, affine=True, track_running_stats=True)
          (act): Act()
        )
      )
      (skip): Identity()
      (drop_path): DropPath(drop_prob=0.008)
    )
    (4): SparseAttentionBlock(
      (proj_in): ConvX(
        (conv): Conv2d(48, 48, kernel_size=(1, 1), stride=(1, 1), bias=False)
        (norm): BatchNorm2d(48, eps=1e-05, momentum=0.1, affine=True, track_running_stats=True)
        (act): Act()
      )
      (q): ConvX(
        (conv): Conv2d(48, 48, kernel_size=(3, 3), stride=(1, 1), padding=(1, 1), groups=12, bias=False)
        (norm): BatchNorm2d(48, eps=1e-05, momentum=0.1, affine=True, track_running_stats=True)
        (act): Act()
      )
      (k): ConvX(
        (conv): Conv2d(48, 48, kernel_size=(3, 3), stride=(1, 1), padding=(1, 1), groups=12, bias=False)
        (norm): BatchNorm2d(48, eps=1e-05, momentum=0.1, affine=True, track_running_stats=True)
        (act): Act()
      )
      (v): ConvX(
        (conv): Conv2d(48, 48, kernel_size=(3, 3), stride=(1, 1), padding=(1, 1), groups=12, bias=False)
        (norm): BatchNorm2d(48, eps=1e-05, momentum=0.1, affine=True, track_running_stats=True)
        (act): Act()
      )
      (sattn): SparseAttention(
        (att): Attention()
      )
      (proj): Sequential(
        (0): Act(
          (act): GELU(approximate='none')
        )
        (1): ConvX(
          (conv): Conv2d(48, 48, kernel_size=(1, 1), stride=(1, 1), bias=False)
          (norm): BatchNorm2d(48, eps=1e-05, momentum=0.1, affine=True, track_running_stats=True)
          (act): Act()
        )
      )
      (drop_path): DropPath(drop_prob=0.008)
    )
  )
  (layer2): Sequential(
    (0): CNNBlock(
      (main): Sequential(
        (0): ConvX(
          (conv): Conv2d(48, 384, kernel_size=(1, 1), stride=(1, 1), bias=False)
          (norm): BatchNorm2d(384, eps=1e-05, momentum=0.1, affine=True, track_running_stats=True)
          (act): Act(
            (act): GELU(approximate='none')
          )
        )
        (1): ConvX(
          (conv): Conv2d(384, 384, kernel_size=(3, 3), stride=(2, 2), padding=(1, 1), groups=96, bias=False)
          (norm): BatchNorm2d(384, eps=1e-05, momentum=0.1, affine=True, track_running_stats=True)
          (act): Act(
            (act): GELU(approximate='none')
          )
        )
        (2): SE(
          (se): Sequential(
            (0): AdaptiveAvgPool2d(output_size=1)
            (1): Conv2d(384, 48, kernel_size=(1, 1), stride=(1, 1))
            (2): ReLU()
            (3): Conv2d(48, 384, kernel_size=(1, 1), stride=(1, 1))
            (4): Sigmoid()
          )
        )
        (3): ConvX(
          (conv): Conv2d(384, 96, kernel_size=(1, 1), stride=(1, 1), bias=False)
          (norm): BatchNorm2d(96, eps=1e-05, momentum=0.1, affine=True, track_running_stats=True)
          (act): Act()
        )
      )
      (skip): Sequential(
        (0): ConvX(
          (conv): Conv2d(48, 48, kernel_size=(3, 3), stride=(2, 2), padding=(1, 1), groups=12, bias=False)
          (norm): BatchNorm2d(48, eps=1e-05, momentum=0.1, affine=True, track_running_stats=True)
          (act): Act()
        )
        (1): ConvX(
          (conv): Conv2d(48, 96, kernel_size=(1, 1), stride=(1, 1), bias=False)
          (norm): BatchNorm2d(96, eps=1e-05, momentum=0.1, affine=True, track_running_stats=True)
          (act): Act()
        )
      )
      (drop_path): DropPath(drop_prob=0.012)
    )
    (1): CNNBlock(
      (main): Sequential(
        (0): ConvX(
          (conv): Conv2d(96, 384, kernel_size=(1, 1), stride=(1, 1), bias=False)
          (norm): BatchNorm2d(384, eps=1e-05, momentum=0.1, affine=True, track_running_stats=True)
          (act): Act(
            (act): GELU(approximate='none')
          )
        )
        (1): ConvX(
          (conv): Conv2d(384, 384, kernel_size=(3, 3), stride=(1, 1), padding=(1, 1), groups=96, bias=False)
          (norm): BatchNorm2d(384, eps=1e-05, momentum=0.1, affine=True, track_running_stats=True)
          (act): Act(
            (act): GELU(approximate='none')
          )
        )
        (2): SE(
          (se): Sequential(
            (0): AdaptiveAvgPool2d(output_size=1)
            (1): Conv2d(384, 48, kernel_size=(1, 1), stride=(1, 1))
            (2): ReLU()
            (3): Conv2d(48, 384, kernel_size=(1, 1), stride=(1, 1))
            (4): Sigmoid()
          )
        )
        (3): ConvX(
          (conv): Conv2d(384, 96, kernel_size=(1, 1), stride=(1, 1), bias=False)
          (norm): BatchNorm2d(96, eps=1e-05, momentum=0.1, affine=True, track_running_stats=True)
          (act): Act()
        )
      )
      (skip): Identity()
      (drop_path): DropPath(drop_prob=0.015)
    )
    (2): SparseAttentionBlock(
      (proj_in): ConvX(
        (conv): Conv2d(96, 96, kernel_size=(1, 1), stride=(1, 1), bias=False)
        (norm): BatchNorm2d(96, eps=1e-05, momentum=0.1, affine=True, track_running_stats=True)
        (act): Act()
      )
      (q): ConvX(
        (conv): Conv2d(96, 96, kernel_size=(3, 3), stride=(1, 1), padding=(1, 1), groups=24, bias=False)
        (norm): BatchNorm2d(96, eps=1e-05, momentum=0.1, affine=True, track_running_stats=True)
        (act): Act()
      )
      (k): ConvX(
        (conv): Conv2d(96, 96, kernel_size=(3, 3), stride=(1, 1), padding=(1, 1), groups=24, bias=False)
        (norm): BatchNorm2d(96, eps=1e-05, momentum=0.1, affine=True, track_running_stats=True)
        (act): Act()
      )
      (v): ConvX(
        (conv): Conv2d(96, 96, kernel_size=(3, 3), stride=(1, 1), padding=(1, 1), groups=24, bias=False)
        (norm): BatchNorm2d(96, eps=1e-05, momentum=0.1, affine=True, track_running_stats=True)
        (act): Act()
      )
      (sattn): SparseAttention(
        (att): Attention()
      )
      (proj): Sequential(
        (0): Act(
          (act): GELU(approximate='none')
        )
        (1): ConvX(
          (conv): Conv2d(96, 96, kernel_size=(1, 1), stride=(1, 1), bias=False)
          (norm): BatchNorm2d(96, eps=1e-05, momentum=0.1, affine=True, track_running_stats=True)
          (act): Act()
        )
      )
      (drop_path): DropPath(drop_prob=0.015)
    )
    (3): CNNBlock(
      (main): Sequential(
        (0): ConvX(
          (conv): Conv2d(96, 384, kernel_size=(1, 1), stride=(1, 1), bias=False)
          (norm): BatchNorm2d(384, eps=1e-05, momentum=0.1, affine=True, track_running_stats=True)
          (act): Act(
            (act): GELU(approximate='none')
          )
        )
        (1): ConvX(
          (conv): Conv2d(384, 384, kernel_size=(3, 3), stride=(1, 1), padding=(1, 1), groups=96, bias=False)
          (norm): BatchNorm2d(384, eps=1e-05, momentum=0.1, affine=True, track_running_stats=True)
          (act): Act(
            (act): GELU(approximate='none')
          )
        )
        (2): SE(
          (se): Sequential(
            (0): AdaptiveAvgPool2d(output_size=1)
            (1): Conv2d(384, 48, kernel_size=(1, 1), stride=(1, 1))
            (2): ReLU()
            (3): Conv2d(48, 384, kernel_size=(1, 1), stride=(1, 1))
            (4): Sigmoid()
          )
        )
        (3): ConvX(
          (conv): Conv2d(384, 96, kernel_size=(1, 1), stride=(1, 1), bias=False)
          (norm): BatchNorm2d(96, eps=1e-05, momentum=0.1, affine=True, track_running_stats=True)
          (act): Act()
        )
      )
      (skip): Identity()
      (drop_path): DropPath(drop_prob=0.019)
    )
    (4): SparseAttentionBlock(
      (proj_in): ConvX(
        (conv): Conv2d(96, 96, kernel_size=(1, 1), stride=(1, 1), bias=False)
        (norm): BatchNorm2d(96, eps=1e-05, momentum=0.1, affine=True, track_running_stats=True)
        (act): Act()
      )
      (q): ConvX(
        (conv): Conv2d(96, 96, kernel_size=(3, 3), stride=(1, 1), padding=(1, 1), groups=24, bias=False)
        (norm): BatchNorm2d(96, eps=1e-05, momentum=0.1, affine=True, track_running_stats=True)
        (act): Act()
      )
      (k): ConvX(
        (conv): Conv2d(96, 96, kernel_size=(3, 3), stride=(1, 1), padding=(1, 1), groups=24, bias=False)
        (norm): BatchNorm2d(96, eps=1e-05, momentum=0.1, affine=True, track_running_stats=True)
        (act): Act()
      )
      (v): ConvX(
        (conv): Conv2d(96, 96, kernel_size=(3, 3), stride=(1, 1), padding=(1, 1), groups=24, bias=False)
        (norm): BatchNorm2d(96, eps=1e-05, momentum=0.1, affine=True, track_running_stats=True)
        (act): Act()
      )
      (sattn): SparseAttention(
        (att): Attention()
      )
      (proj): Sequential(
        (0): Act(
          (act): GELU(approximate='none')
        )
        (1): ConvX(
          (conv): Conv2d(96, 96, kernel_size=(1, 1), stride=(1, 1), bias=False)
          (norm): BatchNorm2d(96, eps=1e-05, momentum=0.1, affine=True, track_running_stats=True)
          (act): Act()
        )
      )
      (drop_path): DropPath(drop_prob=0.019)
    )
    (5): CNNBlock(
      (main): Sequential(
        (0): ConvX(
          (conv): Conv2d(96, 384, kernel_size=(1, 1), stride=(1, 1), bias=False)
          (norm): BatchNorm2d(384, eps=1e-05, momentum=0.1, affine=True, track_running_stats=True)
          (act): Act(
            (act): GELU(approximate='none')
          )
        )
        (1): ConvX(
          (conv): Conv2d(384, 384, kernel_size=(3, 3), stride=(1, 1), padding=(1, 1), groups=96, bias=False)
          (norm): BatchNorm2d(384, eps=1e-05, momentum=0.1, affine=True, track_running_stats=True)
          (act): Act(
            (act): GELU(approximate='none')
          )
        )
        (2): SE(
          (se): Sequential(
            (0): AdaptiveAvgPool2d(output_size=1)
            (1): Conv2d(384, 48, kernel_size=(1, 1), stride=(1, 1))
            (2): ReLU()
            (3): Conv2d(48, 384, kernel_size=(1, 1), stride=(1, 1))
            (4): Sigmoid()
          )
        )
        (3): ConvX(
          (conv): Conv2d(384, 96, kernel_size=(1, 1), stride=(1, 1), bias=False)
          (norm): BatchNorm2d(96, eps=1e-05, momentum=0.1, affine=True, track_running_stats=True)
          (act): Act()
        )
      )
      (skip): Identity()
      (drop_path): DropPath(drop_prob=0.023)
    )
    (6): SparseAttentionBlock(
      (proj_in): ConvX(
        (conv): Conv2d(96, 96, kernel_size=(1, 1), stride=(1, 1), bias=False)
        (norm): BatchNorm2d(96, eps=1e-05, momentum=0.1, affine=True, track_running_stats=True)
        (act): Act()
      )
      (q): ConvX(
        (conv): Conv2d(96, 96, kernel_size=(3, 3), stride=(1, 1), padding=(1, 1), groups=24, bias=False)
        (norm): BatchNorm2d(96, eps=1e-05, momentum=0.1, affine=True, track_running_stats=True)
        (act): Act()
      )
      (k): ConvX(
        (conv): Conv2d(96, 96, kernel_size=(3, 3), stride=(1, 1), padding=(1, 1), groups=24, bias=False)
        (norm): BatchNorm2d(96, eps=1e-05, momentum=0.1, affine=True, track_running_stats=True)
        (act): Act()
      )
      (v): ConvX(
        (conv): Conv2d(96, 96, kernel_size=(3, 3), stride=(1, 1), padding=(1, 1), groups=24, bias=False)
        (norm): BatchNorm2d(96, eps=1e-05, momentum=0.1, affine=True, track_running_stats=True)
        (act): Act()
      )
      (sattn): SparseAttention(
        (att): Attention()
      )
      (proj): Sequential(
        (0): Act(
          (act): GELU(approximate='none')
        )
        (1): ConvX(
          (conv): Conv2d(96, 96, kernel_size=(1, 1), stride=(1, 1), bias=False)
          (norm): BatchNorm2d(96, eps=1e-05, momentum=0.1, affine=True, track_running_stats=True)
          (act): Act()
        )
      )
      (drop_path): DropPath(drop_prob=0.023)
    )
    (7): CNNBlock(
      (main): Sequential(
        (0): ConvX(
          (conv): Conv2d(96, 384, kernel_size=(1, 1), stride=(1, 1), bias=False)
          (norm): BatchNorm2d(384, eps=1e-05, momentum=0.1, affine=True, track_running_stats=True)
          (act): Act(
            (act): GELU(approximate='none')
          )
        )
        (1): ConvX(
          (conv): Conv2d(384, 384, kernel_size=(3, 3), stride=(1, 1), padding=(1, 1), groups=96, bias=False)
          (norm): BatchNorm2d(384, eps=1e-05, momentum=0.1, affine=True, track_running_stats=True)
          (act): Act(
            (act): GELU(approximate='none')
          )
        )
        (2): SE(
          (se): Sequential(
            (0): AdaptiveAvgPool2d(output_size=1)
            (1): Conv2d(384, 48, kernel_size=(1, 1), stride=(1, 1))
            (2): ReLU()
            (3): Conv2d(48, 384, kernel_size=(1, 1), stride=(1, 1))
            (4): Sigmoid()
          )
        )
        (3): ConvX(
          (conv): Conv2d(384, 96, kernel_size=(1, 1), stride=(1, 1), bias=False)
          (norm): BatchNorm2d(96, eps=1e-05, momentum=0.1, affine=True, track_running_stats=True)
          (act): Act()
        )
      )
      (skip): Identity()
      (drop_path): DropPath(drop_prob=0.027)
    )
    (8): SparseAttentionBlock(
      (proj_in): ConvX(
        (conv): Conv2d(96, 96, kernel_size=(1, 1), stride=(1, 1), bias=False)
        (norm): BatchNorm2d(96, eps=1e-05, momentum=0.1, affine=True, track_running_stats=True)
        (act): Act()
      )
      (q): ConvX(
        (conv): Conv2d(96, 96, kernel_size=(3, 3), stride=(1, 1), padding=(1, 1), groups=24, bias=False)
        (norm): BatchNorm2d(96, eps=1e-05, momentum=0.1, affine=True, track_running_stats=True)
        (act): Act()
      )
      (k): ConvX(
        (conv): Conv2d(96, 96, kernel_size=(3, 3), stride=(1, 1), padding=(1, 1), groups=24, bias=False)
        (norm): BatchNorm2d(96, eps=1e-05, momentum=0.1, affine=True, track_running_stats=True)
        (act): Act()
      )
      (v): ConvX(
        (conv): Conv2d(96, 96, kernel_size=(3, 3), stride=(1, 1), padding=(1, 1), groups=24, bias=False)
        (norm): BatchNorm2d(96, eps=1e-05, momentum=0.1, affine=True, track_running_stats=True)
        (act): Act()
      )
      (sattn): SparseAttention(
        (att): Attention()
      )
      (proj): Sequential(
        (0): Act(
          (act): GELU(approximate='none')
        )
        (1): ConvX(
          (conv): Conv2d(96, 96, kernel_size=(1, 1), stride=(1, 1), bias=False)
          (norm): BatchNorm2d(96, eps=1e-05, momentum=0.1, affine=True, track_running_stats=True)
          (act): Act()
        )
      )
      (drop_path): DropPath(drop_prob=0.027)
    )
    (9): CNNBlock(
      (main): Sequential(
        (0): ConvX(
          (conv): Conv2d(96, 384, kernel_size=(1, 1), stride=(1, 1), bias=False)
          (norm): BatchNorm2d(384, eps=1e-05, momentum=0.1, affine=True, track_running_stats=True)
          (act): Act(
            (act): GELU(approximate='none')
          )
        )
        (1): ConvX(
          (conv): Conv2d(384, 384, kernel_size=(3, 3), stride=(1, 1), padding=(1, 1), groups=96, bias=False)
          (norm): BatchNorm2d(384, eps=1e-05, momentum=0.1, affine=True, track_running_stats=True)
          (act): Act(
            (act): GELU(approximate='none')
          )
        )
        (2): SE(
          (se): Sequential(
            (0): AdaptiveAvgPool2d(output_size=1)
            (1): Conv2d(384, 48, kernel_size=(1, 1), stride=(1, 1))
            (2): ReLU()
            (3): Conv2d(48, 384, kernel_size=(1, 1), stride=(1, 1))
            (4): Sigmoid()
          )
        )
        (3): ConvX(
          (conv): Conv2d(384, 96, kernel_size=(1, 1), stride=(1, 1), bias=False)
          (norm): BatchNorm2d(96, eps=1e-05, momentum=0.1, affine=True, track_running_stats=True)
          (act): Act()
        )
      )
      (skip): Identity()
      (drop_path): DropPath(drop_prob=0.031)
    )
    (10): SparseAttentionBlock(
      (proj_in): ConvX(
        (conv): Conv2d(96, 96, kernel_size=(1, 1), stride=(1, 1), bias=False)
        (norm): BatchNorm2d(96, eps=1e-05, momentum=0.1, affine=True, track_running_stats=True)
        (act): Act()
      )
      (q): ConvX(
        (conv): Conv2d(96, 96, kernel_size=(3, 3), stride=(1, 1), padding=(1, 1), groups=24, bias=False)
        (norm): BatchNorm2d(96, eps=1e-05, momentum=0.1, affine=True, track_running_stats=True)
        (act): Act()
      )
      (k): ConvX(
        (conv): Conv2d(96, 96, kernel_size=(3, 3), stride=(1, 1), padding=(1, 1), groups=24, bias=False)
        (norm): BatchNorm2d(96, eps=1e-05, momentum=0.1, affine=True, track_running_stats=True)
        (act): Act()
      )
      (v): ConvX(
        (conv): Conv2d(96, 96, kernel_size=(3, 3), stride=(1, 1), padding=(1, 1), groups=24, bias=False)
        (norm): BatchNorm2d(96, eps=1e-05, momentum=0.1, affine=True, track_running_stats=True)
        (act): Act()
      )
      (sattn): SparseAttention(
        (att): Attention()
      )
      (proj): Sequential(
        (0): Act(
          (act): GELU(approximate='none')
        )
        (1): ConvX(
          (conv): Conv2d(96, 96, kernel_size=(1, 1), stride=(1, 1), bias=False)
          (norm): BatchNorm2d(96, eps=1e-05, momentum=0.1, affine=True, track_running_stats=True)
          (act): Act()
        )
      )
      (drop_path): DropPath(drop_prob=0.031)
    )
  )
  (layer3): Sequential(
    (0): CNNBlock(
      (main): Sequential(
        (0): ConvX(
          (conv): Conv2d(96, 768, kernel_size=(1, 1), stride=(1, 1), bias=False)
          (norm): BatchNorm2d(768, eps=1e-05, momentum=0.1, affine=True, track_running_stats=True)
          (act): Act(
            (act): GELU(approximate='none')
          )
        )
        (1): ConvX(
          (conv): Conv2d(768, 768, kernel_size=(3, 3), stride=(2, 2), padding=(1, 1), groups=192, bias=False)
          (norm): BatchNorm2d(768, eps=1e-05, momentum=0.1, affine=True, track_running_stats=True)
          (act): Act(
            (act): GELU(approximate='none')
          )
        )
        (2): SE(
          (se): Sequential(
            (0): AdaptiveAvgPool2d(output_size=1)
            (1): Conv2d(768, 96, kernel_size=(1, 1), stride=(1, 1))
            (2): ReLU()
            (3): Conv2d(96, 768, kernel_size=(1, 1), stride=(1, 1))
            (4): Sigmoid()
          )
        )
        (3): ConvX(
          (conv): Conv2d(768, 192, kernel_size=(1, 1), stride=(1, 1), bias=False)
          (norm): BatchNorm2d(192, eps=1e-05, momentum=0.1, affine=True, track_running_stats=True)
          (act): Act()
        )
      )
      (skip): Sequential(
        (0): ConvX(
          (conv): Conv2d(96, 96, kernel_size=(3, 3), stride=(2, 2), padding=(1, 1), groups=24, bias=False)
          (norm): BatchNorm2d(96, eps=1e-05, momentum=0.1, affine=True, track_running_stats=True)
          (act): Act()
        )
        (1): ConvX(
          (conv): Conv2d(96, 192, kernel_size=(1, 1), stride=(1, 1), bias=False)
          (norm): BatchNorm2d(192, eps=1e-05, momentum=0.1, affine=True, track_running_stats=True)
          (act): Act()
        )
      )
      (drop_path): DropPath(drop_prob=0.035)
    )
    (1): CNNBlock(
      (main): Sequential(
        (0): ConvX(
          (conv): Conv2d(192, 768, kernel_size=(1, 1), stride=(1, 1), bias=False)
          (norm): BatchNorm2d(768, eps=1e-05, momentum=0.1, affine=True, track_running_stats=True)
          (act): Act(
            (act): GELU(approximate='none')
          )
        )
        (1): ConvX(
          (conv): Conv2d(768, 768, kernel_size=(3, 3), stride=(1, 1), padding=(1, 1), groups=192, bias=False)
          (norm): BatchNorm2d(768, eps=1e-05, momentum=0.1, affine=True, track_running_stats=True)
          (act): Act(
            (act): GELU(approximate='none')
          )
        )
        (2): SE(
          (se): Sequential(
            (0): AdaptiveAvgPool2d(output_size=1)
            (1): Conv2d(768, 96, kernel_size=(1, 1), stride=(1, 1))
            (2): ReLU()
            (3): Conv2d(96, 768, kernel_size=(1, 1), stride=(1, 1))
            (4): Sigmoid()
          )
        )
        (3): ConvX(
          (conv): Conv2d(768, 192, kernel_size=(1, 1), stride=(1, 1), bias=False)
          (norm): BatchNorm2d(192, eps=1e-05, momentum=0.1, affine=True, track_running_stats=True)
          (act): Act()
        )
      )
      (skip): Identity()
      (drop_path): DropPath(drop_prob=0.038)
    )
    (2): SparseAttentionBlock(
      (proj_in): ConvX(
        (conv): Conv2d(192, 192, kernel_size=(1, 1), stride=(1, 1), bias=False)
        (norm): BatchNorm2d(192, eps=1e-05, momentum=0.1, affine=True, track_running_stats=True)
        (act): Act()
      )
      (q): ConvX(
        (conv): Conv2d(192, 192, kernel_size=(3, 3), stride=(1, 1), padding=(1, 1), groups=48, bias=False)
        (norm): BatchNorm2d(192, eps=1e-05, momentum=0.1, affine=True, track_running_stats=True)
        (act): Act()
      )
      (k): ConvX(
        (conv): Conv2d(192, 192, kernel_size=(3, 3), stride=(1, 1), padding=(1, 1), groups=48, bias=False)
        (norm): BatchNorm2d(192, eps=1e-05, momentum=0.1, affine=True, track_running_stats=True)
        (act): Act()
      )
      (v): ConvX(
        (conv): Conv2d(192, 192, kernel_size=(3, 3), stride=(1, 1), padding=(1, 1), groups=48, bias=False)
        (norm): BatchNorm2d(192, eps=1e-05, momentum=0.1, affine=True, track_running_stats=True)
        (act): Act()
      )
      (sattn): SparseAttention(
        (att): Attention()
      )
      (proj): Sequential(
        (0): Act(
          (act): GELU(approximate='none')
        )
        (1): ConvX(
          (conv): Conv2d(192, 192, kernel_size=(1, 1), stride=(1, 1), bias=False)
          (norm): BatchNorm2d(192, eps=1e-05, momentum=0.1, affine=True, track_running_stats=True)
          (act): Act()
        )
      )
      (drop_path): DropPath(drop_prob=0.038)
    )
    (3): CNNBlock(
      (main): Sequential(
        (0): ConvX(
          (conv): Conv2d(192, 768, kernel_size=(1, 1), stride=(1, 1), bias=False)
          (norm): BatchNorm2d(768, eps=1e-05, momentum=0.1, affine=True, track_running_stats=True)
          (act): Act(
            (act): GELU(approximate='none')
          )
        )
        (1): ConvX(
          (conv): Conv2d(768, 768, kernel_size=(3, 3), stride=(1, 1), padding=(1, 1), groups=192, bias=False)
          (norm): BatchNorm2d(768, eps=1e-05, momentum=0.1, affine=True, track_running_stats=True)
          (act): Act(
            (act): GELU(approximate='none')
          )
        )
        (2): SE(
          (se): Sequential(
            (0): AdaptiveAvgPool2d(output_size=1)
            (1): Conv2d(768, 96, kernel_size=(1, 1), stride=(1, 1))
            (2): ReLU()
            (3): Conv2d(96, 768, kernel_size=(1, 1), stride=(1, 1))
            (4): Sigmoid()
          )
        )
        (3): ConvX(
          (conv): Conv2d(768, 192, kernel_size=(1, 1), stride=(1, 1), bias=False)
          (norm): BatchNorm2d(192, eps=1e-05, momentum=0.1, affine=True, track_running_stats=True)
          (act): Act()
        )
      )
      (skip): Identity()
      (drop_path): DropPath(drop_prob=0.042)
    )
    (4): SparseAttentionBlock(
      (proj_in): ConvX(
        (conv): Conv2d(192, 192, kernel_size=(1, 1), stride=(1, 1), bias=False)
        (norm): BatchNorm2d(192, eps=1e-05, momentum=0.1, affine=True, track_running_stats=True)
        (act): Act()
      )
      (q): ConvX(
        (conv): Conv2d(192, 192, kernel_size=(3, 3), stride=(1, 1), padding=(1, 1), groups=48, bias=False)
        (norm): BatchNorm2d(192, eps=1e-05, momentum=0.1, affine=True, track_running_stats=True)
        (act): Act()
      )
      (k): ConvX(
        (conv): Conv2d(192, 192, kernel_size=(3, 3), stride=(1, 1), padding=(1, 1), groups=48, bias=False)
        (norm): BatchNorm2d(192, eps=1e-05, momentum=0.1, affine=True, track_running_stats=True)
        (act): Act()
      )
      (v): ConvX(
        (conv): Conv2d(192, 192, kernel_size=(3, 3), stride=(1, 1), padding=(1, 1), groups=48, bias=False)
        (norm): BatchNorm2d(192, eps=1e-05, momentum=0.1, affine=True, track_running_stats=True)
        (act): Act()
      )
      (sattn): SparseAttention(
        (att): Attention()
      )
      (proj): Sequential(
        (0): Act(
          (act): GELU(approximate='none')
        )
        (1): ConvX(
          (conv): Conv2d(192, 192, kernel_size=(1, 1), stride=(1, 1), bias=False)
          (norm): BatchNorm2d(192, eps=1e-05, momentum=0.1, affine=True, track_running_stats=True)
          (act): Act()
        )
      )
      (drop_path): DropPath(drop_prob=0.042)
    )
    (5): CNNBlock(
      (main): Sequential(
        (0): ConvX(
          (conv): Conv2d(192, 768, kernel_size=(1, 1), stride=(1, 1), bias=False)
          (norm): BatchNorm2d(768, eps=1e-05, momentum=0.1, affine=True, track_running_stats=True)
          (act): Act(
            (act): GELU(approximate='none')
          )
        )
        (1): ConvX(
          (conv): Conv2d(768, 768, kernel_size=(3, 3), stride=(1, 1), padding=(1, 1), groups=192, bias=False)
          (norm): BatchNorm2d(768, eps=1e-05, momentum=0.1, affine=True, track_running_stats=True)
          (act): Act(
            (act): GELU(approximate='none')
          )
        )
        (2): SE(
          (se): Sequential(
            (0): AdaptiveAvgPool2d(output_size=1)
            (1): Conv2d(768, 96, kernel_size=(1, 1), stride=(1, 1))
            (2): ReLU()
            (3): Conv2d(96, 768, kernel_size=(1, 1), stride=(1, 1))
            (4): Sigmoid()
          )
        )
        (3): ConvX(
          (conv): Conv2d(768, 192, kernel_size=(1, 1), stride=(1, 1), bias=False)
          (norm): BatchNorm2d(192, eps=1e-05, momentum=0.1, affine=True, track_running_stats=True)
          (act): Act()
        )
      )
      (skip): Identity()
      (drop_path): DropPath(drop_prob=0.046)
    )
    (6): SparseAttentionBlock(
      (proj_in): ConvX(
        (conv): Conv2d(192, 192, kernel_size=(1, 1), stride=(1, 1), bias=False)
        (norm): BatchNorm2d(192, eps=1e-05, momentum=0.1, affine=True, track_running_stats=True)
        (act): Act()
      )
      (q): ConvX(
        (conv): Conv2d(192, 192, kernel_size=(3, 3), stride=(1, 1), padding=(1, 1), groups=48, bias=False)
        (norm): BatchNorm2d(192, eps=1e-05, momentum=0.1, affine=True, track_running_stats=True)
        (act): Act()
      )
      (k): ConvX(
        (conv): Conv2d(192, 192, kernel_size=(3, 3), stride=(1, 1), padding=(1, 1), groups=48, bias=False)
        (norm): BatchNorm2d(192, eps=1e-05, momentum=0.1, affine=True, track_running_stats=True)
        (act): Act()
      )
      (v): ConvX(
        (conv): Conv2d(192, 192, kernel_size=(3, 3), stride=(1, 1), padding=(1, 1), groups=48, bias=False)
        (norm): BatchNorm2d(192, eps=1e-05, momentum=0.1, affine=True, track_running_stats=True)
        (act): Act()
      )
      (sattn): SparseAttention(
        (att): Attention()
      )
      (proj): Sequential(
        (0): Act(
          (act): GELU(approximate='none')
        )
        (1): ConvX(
          (conv): Conv2d(192, 192, kernel_size=(1, 1), stride=(1, 1), bias=False)
          (norm): BatchNorm2d(192, eps=1e-05, momentum=0.1, affine=True, track_running_stats=True)
          (act): Act()
        )
      )
      (drop_path): DropPath(drop_prob=0.046)
    )
    (7): CNNBlock(
      (main): Sequential(
        (0): ConvX(
          (conv): Conv2d(192, 768, kernel_size=(1, 1), stride=(1, 1), bias=False)
          (norm): BatchNorm2d(768, eps=1e-05, momentum=0.1, affine=True, track_running_stats=True)
          (act): Act(
            (act): GELU(approximate='none')
          )
        )
        (1): ConvX(
          (conv): Conv2d(768, 768, kernel_size=(3, 3), stride=(1, 1), padding=(1, 1), groups=192, bias=False)
          (norm): BatchNorm2d(768, eps=1e-05, momentum=0.1, affine=True, track_running_stats=True)
          (act): Act(
            (act): GELU(approximate='none')
          )
        )
        (2): SE(
          (se): Sequential(
            (0): AdaptiveAvgPool2d(output_size=1)
            (1): Conv2d(768, 96, kernel_size=(1, 1), stride=(1, 1))
            (2): ReLU()
            (3): Conv2d(96, 768, kernel_size=(1, 1), stride=(1, 1))
            (4): Sigmoid()
          )
        )
        (3): ConvX(
          (conv): Conv2d(768, 192, kernel_size=(1, 1), stride=(1, 1), bias=False)
          (norm): BatchNorm2d(192, eps=1e-05, momentum=0.1, affine=True, track_running_stats=True)
          (act): Act()
        )
      )
      (skip): Identity()
      (drop_path): DropPath(drop_prob=0.050)
    )
    (8): SparseAttentionBlock(
      (proj_in): ConvX(
        (conv): Conv2d(192, 192, kernel_size=(1, 1), stride=(1, 1), bias=False)
        (norm): BatchNorm2d(192, eps=1e-05, momentum=0.1, affine=True, track_running_stats=True)
        (act): Act()
      )
      (q): ConvX(
        (conv): Conv2d(192, 192, kernel_size=(3, 3), stride=(1, 1), padding=(1, 1), groups=48, bias=False)
        (norm): BatchNorm2d(192, eps=1e-05, momentum=0.1, affine=True, track_running_stats=True)
        (act): Act()
      )
      (k): ConvX(
        (conv): Conv2d(192, 192, kernel_size=(3, 3), stride=(1, 1), padding=(1, 1), groups=48, bias=False)
        (norm): BatchNorm2d(192, eps=1e-05, momentum=0.1, affine=True, track_running_stats=True)
        (act): Act()
      )
      (v): ConvX(
        (conv): Conv2d(192, 192, kernel_size=(3, 3), stride=(1, 1), padding=(1, 1), groups=48, bias=False)
        (norm): BatchNorm2d(192, eps=1e-05, momentum=0.1, affine=True, track_running_stats=True)
        (act): Act()
      )
      (sattn): SparseAttention(
        (att): Attention()
      )
      (proj): Sequential(
        (0): Act(
          (act): GELU(approximate='none')
        )
        (1): ConvX(
          (conv): Conv2d(192, 192, kernel_size=(1, 1), stride=(1, 1), bias=False)
          (norm): BatchNorm2d(192, eps=1e-05, momentum=0.1, affine=True, track_running_stats=True)
          (act): Act()
        )
      )
      (drop_path): DropPath(drop_prob=0.050)
    )
    (9): CNNBlock(
      (main): Sequential(
        (0): ConvX(
          (conv): Conv2d(192, 768, kernel_size=(1, 1), stride=(1, 1), bias=False)
          (norm): BatchNorm2d(768, eps=1e-05, momentum=0.1, affine=True, track_running_stats=True)
          (act): Act(
            (act): GELU(approximate='none')
          )
        )
        (1): ConvX(
          (conv): Conv2d(768, 768, kernel_size=(3, 3), stride=(1, 1), padding=(1, 1), groups=192, bias=False)
          (norm): BatchNorm2d(768, eps=1e-05, momentum=0.1, affine=True, track_running_stats=True)
          (act): Act(
            (act): GELU(approximate='none')
          )
        )
        (2): SE(
          (se): Sequential(
            (0): AdaptiveAvgPool2d(output_size=1)
            (1): Conv2d(768, 96, kernel_size=(1, 1), stride=(1, 1))
            (2): ReLU()
            (3): Conv2d(96, 768, kernel_size=(1, 1), stride=(1, 1))
            (4): Sigmoid()
          )
        )
        (3): ConvX(
          (conv): Conv2d(768, 192, kernel_size=(1, 1), stride=(1, 1), bias=False)
          (norm): BatchNorm2d(192, eps=1e-05, momentum=0.1, affine=True, track_running_stats=True)
          (act): Act()
        )
      )
      (skip): Identity()
      (drop_path): DropPath(drop_prob=0.054)
    )
    (10): SparseAttentionBlock(
      (proj_in): ConvX(
        (conv): Conv2d(192, 192, kernel_size=(1, 1), stride=(1, 1), bias=False)
        (norm): BatchNorm2d(192, eps=1e-05, momentum=0.1, affine=True, track_running_stats=True)
        (act): Act()
      )
      (q): ConvX(
        (conv): Conv2d(192, 192, kernel_size=(3, 3), stride=(1, 1), padding=(1, 1), groups=48, bias=False)
        (norm): BatchNorm2d(192, eps=1e-05, momentum=0.1, affine=True, track_running_stats=True)
        (act): Act()
      )
      (k): ConvX(
        (conv): Conv2d(192, 192, kernel_size=(3, 3), stride=(1, 1), padding=(1, 1), groups=48, bias=False)
        (norm): BatchNorm2d(192, eps=1e-05, momentum=0.1, affine=True, track_running_stats=True)
        (act): Act()
      )
      (v): ConvX(
        (conv): Conv2d(192, 192, kernel_size=(3, 3), stride=(1, 1), padding=(1, 1), groups=48, bias=False)
        (norm): BatchNorm2d(192, eps=1e-05, momentum=0.1, affine=True, track_running_stats=True)
        (act): Act()
      )
      (sattn): SparseAttention(
        (att): Attention()
      )
      (proj): Sequential(
        (0): Act(
          (act): GELU(approximate='none')
        )
        (1): ConvX(
          (conv): Conv2d(192, 192, kernel_size=(1, 1), stride=(1, 1), bias=False)
          (norm): BatchNorm2d(192, eps=1e-05, momentum=0.1, affine=True, track_running_stats=True)
          (act): Act()
        )
      )
      (drop_path): DropPath(drop_prob=0.054)
    )
    (11): CNNBlock(
      (main): Sequential(
        (0): ConvX(
          (conv): Conv2d(192, 768, kernel_size=(1, 1), stride=(1, 1), bias=False)
          (norm): BatchNorm2d(768, eps=1e-05, momentum=0.1, affine=True, track_running_stats=True)
          (act): Act(
            (act): GELU(approximate='none')
          )
        )
        (1): ConvX(
          (conv): Conv2d(768, 768, kernel_size=(3, 3), stride=(1, 1), padding=(1, 1), groups=192, bias=False)
          (norm): BatchNorm2d(768, eps=1e-05, momentum=0.1, affine=True, track_running_stats=True)
          (act): Act(
            (act): GELU(approximate='none')
          )
        )
        (2): SE(
          (se): Sequential(
            (0): AdaptiveAvgPool2d(output_size=1)
            (1): Conv2d(768, 96, kernel_size=(1, 1), stride=(1, 1))
            (2): ReLU()
            (3): Conv2d(96, 768, kernel_size=(1, 1), stride=(1, 1))
            (4): Sigmoid()
          )
        )
        (3): ConvX(
          (conv): Conv2d(768, 192, kernel_size=(1, 1), stride=(1, 1), bias=False)
          (norm): BatchNorm2d(192, eps=1e-05, momentum=0.1, affine=True, track_running_stats=True)
          (act): Act()
        )
      )
      (skip): Identity()
      (drop_path): DropPath(drop_prob=0.058)
    )
    (12): SparseAttentionBlock(
      (proj_in): ConvX(
        (conv): Conv2d(192, 192, kernel_size=(1, 1), stride=(1, 1), bias=False)
        (norm): BatchNorm2d(192, eps=1e-05, momentum=0.1, affine=True, track_running_stats=True)
        (act): Act()
      )
      (q): ConvX(
        (conv): Conv2d(192, 192, kernel_size=(3, 3), stride=(1, 1), padding=(1, 1), groups=48, bias=False)
        (norm): BatchNorm2d(192, eps=1e-05, momentum=0.1, affine=True, track_running_stats=True)
        (act): Act()
      )
      (k): ConvX(
        (conv): Conv2d(192, 192, kernel_size=(3, 3), stride=(1, 1), padding=(1, 1), groups=48, bias=False)
        (norm): BatchNorm2d(192, eps=1e-05, momentum=0.1, affine=True, track_running_stats=True)
        (act): Act()
      )
      (v): ConvX(
        (conv): Conv2d(192, 192, kernel_size=(3, 3), stride=(1, 1), padding=(1, 1), groups=48, bias=False)
        (norm): BatchNorm2d(192, eps=1e-05, momentum=0.1, affine=True, track_running_stats=True)
        (act): Act()
      )
      (sattn): SparseAttention(
        (att): Attention()
      )
      (proj): Sequential(
        (0): Act(
          (act): GELU(approximate='none')
        )
        (1): ConvX(
          (conv): Conv2d(192, 192, kernel_size=(1, 1), stride=(1, 1), bias=False)
          (norm): BatchNorm2d(192, eps=1e-05, momentum=0.1, affine=True, track_running_stats=True)
          (act): Act()
        )
      )
      (drop_path): DropPath(drop_prob=0.058)
    )
    (13): CNNBlock(
      (main): Sequential(
        (0): ConvX(
          (conv): Conv2d(192, 768, kernel_size=(1, 1), stride=(1, 1), bias=False)
          (norm): BatchNorm2d(768, eps=1e-05, momentum=0.1, affine=True, track_running_stats=True)
          (act): Act(
            (act): GELU(approximate='none')
          )
        )
        (1): ConvX(
          (conv): Conv2d(768, 768, kernel_size=(3, 3), stride=(1, 1), padding=(1, 1), groups=192, bias=False)
          (norm): BatchNorm2d(768, eps=1e-05, momentum=0.1, affine=True, track_running_stats=True)
          (act): Act(
            (act): GELU(approximate='none')
          )
        )
        (2): SE(
          (se): Sequential(
            (0): AdaptiveAvgPool2d(output_size=1)
            (1): Conv2d(768, 96, kernel_size=(1, 1), stride=(1, 1))
            (2): ReLU()
            (3): Conv2d(96, 768, kernel_size=(1, 1), stride=(1, 1))
            (4): Sigmoid()
          )
        )
        (3): ConvX(
          (conv): Conv2d(768, 192, kernel_size=(1, 1), stride=(1, 1), bias=False)
          (norm): BatchNorm2d(192, eps=1e-05, momentum=0.1, affine=True, track_running_stats=True)
          (act): Act()
        )
      )
      (skip): Identity()
      (drop_path): DropPath(drop_prob=0.062)
    )
    (14): SparseAttentionBlock(
      (proj_in): ConvX(
        (conv): Conv2d(192, 192, kernel_size=(1, 1), stride=(1, 1), bias=False)
        (norm): BatchNorm2d(192, eps=1e-05, momentum=0.1, affine=True, track_running_stats=True)
        (act): Act()
      )
      (q): ConvX(
        (conv): Conv2d(192, 192, kernel_size=(3, 3), stride=(1, 1), padding=(1, 1), groups=48, bias=False)
        (norm): BatchNorm2d(192, eps=1e-05, momentum=0.1, affine=True, track_running_stats=True)
        (act): Act()
      )
      (k): ConvX(
        (conv): Conv2d(192, 192, kernel_size=(3, 3), stride=(1, 1), padding=(1, 1), groups=48, bias=False)
        (norm): BatchNorm2d(192, eps=1e-05, momentum=0.1, affine=True, track_running_stats=True)
        (act): Act()
      )
      (v): ConvX(
        (conv): Conv2d(192, 192, kernel_size=(3, 3), stride=(1, 1), padding=(1, 1), groups=48, bias=False)
        (norm): BatchNorm2d(192, eps=1e-05, momentum=0.1, affine=True, track_running_stats=True)
        (act): Act()
      )
      (sattn): SparseAttention(
        (att): Attention()
      )
      (proj): Sequential(
        (0): Act(
          (act): GELU(approximate='none')
        )
        (1): ConvX(
          (conv): Conv2d(192, 192, kernel_size=(1, 1), stride=(1, 1), bias=False)
          (norm): BatchNorm2d(192, eps=1e-05, momentum=0.1, affine=True, track_running_stats=True)
          (act): Act()
        )
      )
      (drop_path): DropPath(drop_prob=0.062)
    )
    (15): CNNBlock(
      (main): Sequential(
        (0): ConvX(
          (conv): Conv2d(192, 768, kernel_size=(1, 1), stride=(1, 1), bias=False)
          (norm): BatchNorm2d(768, eps=1e-05, momentum=0.1, affine=True, track_running_stats=True)
          (act): Act(
            (act): GELU(approximate='none')
          )
        )
        (1): ConvX(
          (conv): Conv2d(768, 768, kernel_size=(3, 3), stride=(1, 1), padding=(1, 1), groups=192, bias=False)
          (norm): BatchNorm2d(768, eps=1e-05, momentum=0.1, affine=True, track_running_stats=True)
          (act): Act(
            (act): GELU(approximate='none')
          )
        )
        (2): SE(
          (se): Sequential(
            (0): AdaptiveAvgPool2d(output_size=1)
            (1): Conv2d(768, 96, kernel_size=(1, 1), stride=(1, 1))
            (2): ReLU()
            (3): Conv2d(96, 768, kernel_size=(1, 1), stride=(1, 1))
            (4): Sigmoid()
          )
        )
        (3): ConvX(
          (conv): Conv2d(768, 192, kernel_size=(1, 1), stride=(1, 1), bias=False)
          (norm): BatchNorm2d(192, eps=1e-05, momentum=0.1, affine=True, track_running_stats=True)
          (act): Act()
        )
      )
      (skip): Identity()
      (drop_path): DropPath(drop_prob=0.065)
    )
    (16): SparseAttentionBlock(
      (proj_in): ConvX(
        (conv): Conv2d(192, 192, kernel_size=(1, 1), stride=(1, 1), bias=False)
        (norm): BatchNorm2d(192, eps=1e-05, momentum=0.1, affine=True, track_running_stats=True)
        (act): Act()
      )
      (q): ConvX(
        (conv): Conv2d(192, 192, kernel_size=(3, 3), stride=(1, 1), padding=(1, 1), groups=48, bias=False)
        (norm): BatchNorm2d(192, eps=1e-05, momentum=0.1, affine=True, track_running_stats=True)
        (act): Act()
      )
      (k): ConvX(
        (conv): Conv2d(192, 192, kernel_size=(3, 3), stride=(1, 1), padding=(1, 1), groups=48, bias=False)
        (norm): BatchNorm2d(192, eps=1e-05, momentum=0.1, affine=True, track_running_stats=True)
        (act): Act()
      )
      (v): ConvX(
        (conv): Conv2d(192, 192, kernel_size=(3, 3), stride=(1, 1), padding=(1, 1), groups=48, bias=False)
        (norm): BatchNorm2d(192, eps=1e-05, momentum=0.1, affine=True, track_running_stats=True)
        (act): Act()
      )
      (sattn): SparseAttention(
        (att): Attention()
      )
      (proj): Sequential(
        (0): Act(
          (act): GELU(approximate='none')
        )
        (1): ConvX(
          (conv): Conv2d(192, 192, kernel_size=(1, 1), stride=(1, 1), bias=False)
          (norm): BatchNorm2d(192, eps=1e-05, momentum=0.1, affine=True, track_running_stats=True)
          (act): Act()
        )
      )
      (drop_path): DropPath(drop_prob=0.065)
    )
    (17): CNNBlock(
      (main): Sequential(
        (0): ConvX(
          (conv): Conv2d(192, 768, kernel_size=(1, 1), stride=(1, 1), bias=False)
          (norm): BatchNorm2d(768, eps=1e-05, momentum=0.1, affine=True, track_running_stats=True)
          (act): Act(
            (act): GELU(approximate='none')
          )
        )
        (1): ConvX(
          (conv): Conv2d(768, 768, kernel_size=(3, 3), stride=(1, 1), padding=(1, 1), groups=192, bias=False)
          (norm): BatchNorm2d(768, eps=1e-05, momentum=0.1, affine=True, track_running_stats=True)
          (act): Act(
            (act): GELU(approximate='none')
          )
        )
        (2): SE(
          (se): Sequential(
            (0): AdaptiveAvgPool2d(output_size=1)
            (1): Conv2d(768, 96, kernel_size=(1, 1), stride=(1, 1))
            (2): ReLU()
            (3): Conv2d(96, 768, kernel_size=(1, 1), stride=(1, 1))
            (4): Sigmoid()
          )
        )
        (3): ConvX(
          (conv): Conv2d(768, 192, kernel_size=(1, 1), stride=(1, 1), bias=False)
          (norm): BatchNorm2d(192, eps=1e-05, momentum=0.1, affine=True, track_running_stats=True)
          (act): Act()
        )
      )
      (skip): Identity()
      (drop_path): DropPath(drop_prob=0.069)
    )
    (18): SparseAttentionBlock(
      (proj_in): ConvX(
        (conv): Conv2d(192, 192, kernel_size=(1, 1), stride=(1, 1), bias=False)
        (norm): BatchNorm2d(192, eps=1e-05, momentum=0.1, affine=True, track_running_stats=True)
        (act): Act()
      )
      (q): ConvX(
        (conv): Conv2d(192, 192, kernel_size=(3, 3), stride=(1, 1), padding=(1, 1), groups=48, bias=False)
        (norm): BatchNorm2d(192, eps=1e-05, momentum=0.1, affine=True, track_running_stats=True)
        (act): Act()
      )
      (k): ConvX(
        (conv): Conv2d(192, 192, kernel_size=(3, 3), stride=(1, 1), padding=(1, 1), groups=48, bias=False)
        (norm): BatchNorm2d(192, eps=1e-05, momentum=0.1, affine=True, track_running_stats=True)
        (act): Act()
      )
      (v): ConvX(
        (conv): Conv2d(192, 192, kernel_size=(3, 3), stride=(1, 1), padding=(1, 1), groups=48, bias=False)
        (norm): BatchNorm2d(192, eps=1e-05, momentum=0.1, affine=True, track_running_stats=True)
        (act): Act()
      )
      (sattn): SparseAttention(
        (att): Attention()
      )
      (proj): Sequential(
        (0): Act(
          (act): GELU(approximate='none')
        )
        (1): ConvX(
          (conv): Conv2d(192, 192, kernel_size=(1, 1), stride=(1, 1), bias=False)
          (norm): BatchNorm2d(192, eps=1e-05, momentum=0.1, affine=True, track_running_stats=True)
          (act): Act()
        )
      )
      (drop_path): DropPath(drop_prob=0.069)
    )
    (19): CNNBlock(
      (main): Sequential(
        (0): ConvX(
          (conv): Conv2d(192, 768, kernel_size=(1, 1), stride=(1, 1), bias=False)
          (norm): BatchNorm2d(768, eps=1e-05, momentum=0.1, affine=True, track_running_stats=True)
          (act): Act(
            (act): GELU(approximate='none')
          )
        )
        (1): ConvX(
          (conv): Conv2d(768, 768, kernel_size=(3, 3), stride=(1, 1), padding=(1, 1), groups=192, bias=False)
          (norm): BatchNorm2d(768, eps=1e-05, momentum=0.1, affine=True, track_running_stats=True)
          (act): Act(
            (act): GELU(approximate='none')
          )
        )
        (2): SE(
          (se): Sequential(
            (0): AdaptiveAvgPool2d(output_size=1)
            (1): Conv2d(768, 96, kernel_size=(1, 1), stride=(1, 1))
            (2): ReLU()
            (3): Conv2d(96, 768, kernel_size=(1, 1), stride=(1, 1))
            (4): Sigmoid()
          )
        )
        (3): ConvX(
          (conv): Conv2d(768, 192, kernel_size=(1, 1), stride=(1, 1), bias=False)
          (norm): BatchNorm2d(192, eps=1e-05, momentum=0.1, affine=True, track_running_stats=True)
          (act): Act()
        )
      )
      (skip): Identity()
      (drop_path): DropPath(drop_prob=0.073)
    )
    (20): SparseAttentionBlock(
      (proj_in): ConvX(
        (conv): Conv2d(192, 192, kernel_size=(1, 1), stride=(1, 1), bias=False)
        (norm): BatchNorm2d(192, eps=1e-05, momentum=0.1, affine=True, track_running_stats=True)
        (act): Act()
      )
      (q): ConvX(
        (conv): Conv2d(192, 192, kernel_size=(3, 3), stride=(1, 1), padding=(1, 1), groups=48, bias=False)
        (norm): BatchNorm2d(192, eps=1e-05, momentum=0.1, affine=True, track_running_stats=True)
        (act): Act()
      )
      (k): ConvX(
        (conv): Conv2d(192, 192, kernel_size=(3, 3), stride=(1, 1), padding=(1, 1), groups=48, bias=False)
        (norm): BatchNorm2d(192, eps=1e-05, momentum=0.1, affine=True, track_running_stats=True)
        (act): Act()
      )
      (v): ConvX(
        (conv): Conv2d(192, 192, kernel_size=(3, 3), stride=(1, 1), padding=(1, 1), groups=48, bias=False)
        (norm): BatchNorm2d(192, eps=1e-05, momentum=0.1, affine=True, track_running_stats=True)
        (act): Act()
      )
      (sattn): SparseAttention(
        (att): Attention()
      )
      (proj): Sequential(
        (0): Act(
          (act): GELU(approximate='none')
        )
        (1): ConvX(
          (conv): Conv2d(192, 192, kernel_size=(1, 1), stride=(1, 1), bias=False)
          (norm): BatchNorm2d(192, eps=1e-05, momentum=0.1, affine=True, track_running_stats=True)
          (act): Act()
        )
      )
      (drop_path): DropPath(drop_prob=0.073)
    )
    (21): CNNBlock(
      (main): Sequential(
        (0): ConvX(
          (conv): Conv2d(192, 768, kernel_size=(1, 1), stride=(1, 1), bias=False)
          (norm): BatchNorm2d(768, eps=1e-05, momentum=0.1, affine=True, track_running_stats=True)
          (act): Act(
            (act): GELU(approximate='none')
          )
        )
        (1): ConvX(
          (conv): Conv2d(768, 768, kernel_size=(3, 3), stride=(1, 1), padding=(1, 1), groups=192, bias=False)
          (norm): BatchNorm2d(768, eps=1e-05, momentum=0.1, affine=True, track_running_stats=True)
          (act): Act(
            (act): GELU(approximate='none')
          )
        )
        (2): SE(
          (se): Sequential(
            (0): AdaptiveAvgPool2d(output_size=1)
            (1): Conv2d(768, 96, kernel_size=(1, 1), stride=(1, 1))
            (2): ReLU()
            (3): Conv2d(96, 768, kernel_size=(1, 1), stride=(1, 1))
            (4): Sigmoid()
          )
        )
        (3): ConvX(
          (conv): Conv2d(768, 192, kernel_size=(1, 1), stride=(1, 1), bias=False)
          (norm): BatchNorm2d(192, eps=1e-05, momentum=0.1, affine=True, track_running_stats=True)
          (act): Act()
        )
      )
      (skip): Identity()
      (drop_path): DropPath(drop_prob=0.077)
    )
    (22): SparseAttentionBlock(
      (proj_in): ConvX(
        (conv): Conv2d(192, 192, kernel_size=(1, 1), stride=(1, 1), bias=False)
        (norm): BatchNorm2d(192, eps=1e-05, momentum=0.1, affine=True, track_running_stats=True)
        (act): Act()
      )
      (q): ConvX(
        (conv): Conv2d(192, 192, kernel_size=(3, 3), stride=(1, 1), padding=(1, 1), groups=48, bias=False)
        (norm): BatchNorm2d(192, eps=1e-05, momentum=0.1, affine=True, track_running_stats=True)
        (act): Act()
      )
      (k): ConvX(
        (conv): Conv2d(192, 192, kernel_size=(3, 3), stride=(1, 1), padding=(1, 1), groups=48, bias=False)
        (norm): BatchNorm2d(192, eps=1e-05, momentum=0.1, affine=True, track_running_stats=True)
        (act): Act()
      )
      (v): ConvX(
        (conv): Conv2d(192, 192, kernel_size=(3, 3), stride=(1, 1), padding=(1, 1), groups=48, bias=False)
        (norm): BatchNorm2d(192, eps=1e-05, momentum=0.1, affine=True, track_running_stats=True)
        (act): Act()
      )
      (sattn): SparseAttention(
        (att): Attention()
      )
      (proj): Sequential(
        (0): Act(
          (act): GELU(approximate='none')
        )
        (1): ConvX(
          (conv): Conv2d(192, 192, kernel_size=(1, 1), stride=(1, 1), bias=False)
          (norm): BatchNorm2d(192, eps=1e-05, momentum=0.1, affine=True, track_running_stats=True)
          (act): Act()
        )
      )
      (drop_path): DropPath(drop_prob=0.077)
    )
    (23): CNNBlock(
      (main): Sequential(
        (0): ConvX(
          (conv): Conv2d(192, 768, kernel_size=(1, 1), stride=(1, 1), bias=False)
          (norm): BatchNorm2d(768, eps=1e-05, momentum=0.1, affine=True, track_running_stats=True)
          (act): Act(
            (act): GELU(approximate='none')
          )
        )
        (1): ConvX(
          (conv): Conv2d(768, 768, kernel_size=(3, 3), stride=(1, 1), padding=(1, 1), groups=192, bias=False)
          (norm): BatchNorm2d(768, eps=1e-05, momentum=0.1, affine=True, track_running_stats=True)
          (act): Act(
            (act): GELU(approximate='none')
          )
        )
        (2): SE(
          (se): Sequential(
            (0): AdaptiveAvgPool2d(output_size=1)
            (1): Conv2d(768, 96, kernel_size=(1, 1), stride=(1, 1))
            (2): ReLU()
            (3): Conv2d(96, 768, kernel_size=(1, 1), stride=(1, 1))
            (4): Sigmoid()
          )
        )
        (3): ConvX(
          (conv): Conv2d(768, 192, kernel_size=(1, 1), stride=(1, 1), bias=False)
          (norm): BatchNorm2d(192, eps=1e-05, momentum=0.1, affine=True, track_running_stats=True)
          (act): Act()
        )
      )
      (skip): Identity()
      (drop_path): DropPath(drop_prob=0.081)
    )
    (24): SparseAttentionBlock(
      (proj_in): ConvX(
        (conv): Conv2d(192, 192, kernel_size=(1, 1), stride=(1, 1), bias=False)
        (norm): BatchNorm2d(192, eps=1e-05, momentum=0.1, affine=True, track_running_stats=True)
        (act): Act()
      )
      (q): ConvX(
        (conv): Conv2d(192, 192, kernel_size=(3, 3), stride=(1, 1), padding=(1, 1), groups=48, bias=False)
        (norm): BatchNorm2d(192, eps=1e-05, momentum=0.1, affine=True, track_running_stats=True)
        (act): Act()
      )
      (k): ConvX(
        (conv): Conv2d(192, 192, kernel_size=(3, 3), stride=(1, 1), padding=(1, 1), groups=48, bias=False)
        (norm): BatchNorm2d(192, eps=1e-05, momentum=0.1, affine=True, track_running_stats=True)
        (act): Act()
      )
      (v): ConvX(
        (conv): Conv2d(192, 192, kernel_size=(3, 3), stride=(1, 1), padding=(1, 1), groups=48, bias=False)
        (norm): BatchNorm2d(192, eps=1e-05, momentum=0.1, affine=True, track_running_stats=True)
        (act): Act()
      )
      (sattn): SparseAttention(
        (att): Attention()
      )
      (proj): Sequential(
        (0): Act(
          (act): GELU(approximate='none')
        )
        (1): ConvX(
          (conv): Conv2d(192, 192, kernel_size=(1, 1), stride=(1, 1), bias=False)
          (norm): BatchNorm2d(192, eps=1e-05, momentum=0.1, affine=True, track_running_stats=True)
          (act): Act()
        )
      )
      (drop_path): DropPath(drop_prob=0.081)
    )
    (25): CNNBlock(
      (main): Sequential(
        (0): ConvX(
          (conv): Conv2d(192, 768, kernel_size=(1, 1), stride=(1, 1), bias=False)
          (norm): BatchNorm2d(768, eps=1e-05, momentum=0.1, affine=True, track_running_stats=True)
          (act): Act(
            (act): GELU(approximate='none')
          )
        )
        (1): ConvX(
          (conv): Conv2d(768, 768, kernel_size=(3, 3), stride=(1, 1), padding=(1, 1), groups=192, bias=False)
          (norm): BatchNorm2d(768, eps=1e-05, momentum=0.1, affine=True, track_running_stats=True)
          (act): Act(
            (act): GELU(approximate='none')
          )
        )
        (2): SE(
          (se): Sequential(
            (0): AdaptiveAvgPool2d(output_size=1)
            (1): Conv2d(768, 96, kernel_size=(1, 1), stride=(1, 1))
            (2): ReLU()
            (3): Conv2d(96, 768, kernel_size=(1, 1), stride=(1, 1))
            (4): Sigmoid()
          )
        )
        (3): ConvX(
          (conv): Conv2d(768, 192, kernel_size=(1, 1), stride=(1, 1), bias=False)
          (norm): BatchNorm2d(192, eps=1e-05, momentum=0.1, affine=True, track_running_stats=True)
          (act): Act()
        )
      )
      (skip): Identity()
      (drop_path): DropPath(drop_prob=0.085)
    )
    (26): SparseAttentionBlock(
      (proj_in): ConvX(
        (conv): Conv2d(192, 192, kernel_size=(1, 1), stride=(1, 1), bias=False)
        (norm): BatchNorm2d(192, eps=1e-05, momentum=0.1, affine=True, track_running_stats=True)
        (act): Act()
      )
      (q): ConvX(
        (conv): Conv2d(192, 192, kernel_size=(3, 3), stride=(1, 1), padding=(1, 1), groups=48, bias=False)
        (norm): BatchNorm2d(192, eps=1e-05, momentum=0.1, affine=True, track_running_stats=True)
        (act): Act()
      )
      (k): ConvX(
        (conv): Conv2d(192, 192, kernel_size=(3, 3), stride=(1, 1), padding=(1, 1), groups=48, bias=False)
        (norm): BatchNorm2d(192, eps=1e-05, momentum=0.1, affine=True, track_running_stats=True)
        (act): Act()
      )
      (v): ConvX(
        (conv): Conv2d(192, 192, kernel_size=(3, 3), stride=(1, 1), padding=(1, 1), groups=48, bias=False)
        (norm): BatchNorm2d(192, eps=1e-05, momentum=0.1, affine=True, track_running_stats=True)
        (act): Act()
      )
      (sattn): SparseAttention(
        (att): Attention()
      )
      (proj): Sequential(
        (0): Act(
          (act): GELU(approximate='none')
        )
        (1): ConvX(
          (conv): Conv2d(192, 192, kernel_size=(1, 1), stride=(1, 1), bias=False)
          (norm): BatchNorm2d(192, eps=1e-05, momentum=0.1, affine=True, track_running_stats=True)
          (act): Act()
        )
      )
      (drop_path): DropPath(drop_prob=0.085)
    )
    (27): CNNBlock(
      (main): Sequential(
        (0): ConvX(
          (conv): Conv2d(192, 768, kernel_size=(1, 1), stride=(1, 1), bias=False)
          (norm): BatchNorm2d(768, eps=1e-05, momentum=0.1, affine=True, track_running_stats=True)
          (act): Act(
            (act): GELU(approximate='none')
          )
        )
        (1): ConvX(
          (conv): Conv2d(768, 768, kernel_size=(3, 3), stride=(1, 1), padding=(1, 1), groups=192, bias=False)
          (norm): BatchNorm2d(768, eps=1e-05, momentum=0.1, affine=True, track_running_stats=True)
          (act): Act(
            (act): GELU(approximate='none')
          )
        )
        (2): SE(
          (se): Sequential(
            (0): AdaptiveAvgPool2d(output_size=1)
            (1): Conv2d(768, 96, kernel_size=(1, 1), stride=(1, 1))
            (2): ReLU()
            (3): Conv2d(96, 768, kernel_size=(1, 1), stride=(1, 1))
            (4): Sigmoid()
          )
        )
        (3): ConvX(
          (conv): Conv2d(768, 192, kernel_size=(1, 1), stride=(1, 1), bias=False)
          (norm): BatchNorm2d(192, eps=1e-05, momentum=0.1, affine=True, track_running_stats=True)
          (act): Act()
        )
      )
      (skip): Identity()
      (drop_path): DropPath(drop_prob=0.088)
    )
    (28): SparseAttentionBlock(
      (proj_in): ConvX(
        (conv): Conv2d(192, 192, kernel_size=(1, 1), stride=(1, 1), bias=False)
        (norm): BatchNorm2d(192, eps=1e-05, momentum=0.1, affine=True, track_running_stats=True)
        (act): Act()
      )
      (q): ConvX(
        (conv): Conv2d(192, 192, kernel_size=(3, 3), stride=(1, 1), padding=(1, 1), groups=48, bias=False)
        (norm): BatchNorm2d(192, eps=1e-05, momentum=0.1, affine=True, track_running_stats=True)
        (act): Act()
      )
      (k): ConvX(
        (conv): Conv2d(192, 192, kernel_size=(3, 3), stride=(1, 1), padding=(1, 1), groups=48, bias=False)
        (norm): BatchNorm2d(192, eps=1e-05, momentum=0.1, affine=True, track_running_stats=True)
        (act): Act()
      )
      (v): ConvX(
        (conv): Conv2d(192, 192, kernel_size=(3, 3), stride=(1, 1), padding=(1, 1), groups=48, bias=False)
        (norm): BatchNorm2d(192, eps=1e-05, momentum=0.1, affine=True, track_running_stats=True)
        (act): Act()
      )
      (sattn): SparseAttention(
        (att): Attention()
      )
      (proj): Sequential(
        (0): Act(
          (act): GELU(approximate='none')
        )
        (1): ConvX(
          (conv): Conv2d(192, 192, kernel_size=(1, 1), stride=(1, 1), bias=False)
          (norm): BatchNorm2d(192, eps=1e-05, momentum=0.1, affine=True, track_running_stats=True)
          (act): Act()
        )
      )
      (drop_path): DropPath(drop_prob=0.088)
    )
  )
  (layer4): Sequential(
    (0): CNNBlock(
      (main): Sequential(
        (0): ConvX(
          (conv): Conv2d(192, 1536, kernel_size=(1, 1), stride=(1, 1), bias=False)
          (norm): BatchNorm2d(1536, eps=1e-05, momentum=0.1, affine=True, track_running_stats=True)
          (act): Act(
            (act): GELU(approximate='none')
          )
        )
        (1): ConvX(
          (conv): Conv2d(1536, 1536, kernel_size=(3, 3), stride=(2, 2), padding=(1, 1), groups=384, bias=False)
          (norm): BatchNorm2d(1536, eps=1e-05, momentum=0.1, affine=True, track_running_stats=True)
          (act): Act(
            (act): GELU(approximate='none')
          )
        )
        (2): SE(
          (se): Sequential(
            (0): AdaptiveAvgPool2d(output_size=1)
            (1): Conv2d(1536, 192, kernel_size=(1, 1), stride=(1, 1))
            (2): ReLU()
            (3): Conv2d(192, 1536, kernel_size=(1, 1), stride=(1, 1))
            (4): Sigmoid()
          )
        )
        (3): ConvX(
          (conv): Conv2d(1536, 384, kernel_size=(1, 1), stride=(1, 1), bias=False)
          (norm): BatchNorm2d(384, eps=1e-05, momentum=0.1, affine=True, track_running_stats=True)
          (act): Act()
        )
      )
      (skip): Sequential(
        (0): ConvX(
          (conv): Conv2d(192, 192, kernel_size=(3, 3), stride=(2, 2), padding=(1, 1), groups=48, bias=False)
          (norm): BatchNorm2d(192, eps=1e-05, momentum=0.1, affine=True, track_running_stats=True)
          (act): Act()
        )
        (1): ConvX(
          (conv): Conv2d(192, 384, kernel_size=(1, 1), stride=(1, 1), bias=False)
          (norm): BatchNorm2d(384, eps=1e-05, momentum=0.1, affine=True, track_running_stats=True)
          (act): Act()
        )
      )
      (drop_path): DropPath(drop_prob=0.092)
    )
    (1): CNNBlock(
      (main): Sequential(
        (0): ConvX(
          (conv): Conv2d(384, 1536, kernel_size=(1, 1), stride=(1, 1), bias=False)
          (norm): BatchNorm2d(1536, eps=1e-05, momentum=0.1, affine=True, track_running_stats=True)
          (act): Act(
            (act): GELU(approximate='none')
          )
        )
        (1): ConvX(
          (conv): Conv2d(1536, 1536, kernel_size=(3, 3), stride=(1, 1), padding=(1, 1), groups=384, bias=False)
          (norm): BatchNorm2d(1536, eps=1e-05, momentum=0.1, affine=True, track_running_stats=True)
          (act): Act(
            (act): GELU(approximate='none')
          )
        )
        (2): SE(
          (se): Sequential(
            (0): AdaptiveAvgPool2d(output_size=1)
            (1): Conv2d(1536, 192, kernel_size=(1, 1), stride=(1, 1))
            (2): ReLU()
            (3): Conv2d(192, 1536, kernel_size=(1, 1), stride=(1, 1))
            (4): Sigmoid()
          )
        )
        (3): ConvX(
          (conv): Conv2d(1536, 384, kernel_size=(1, 1), stride=(1, 1), bias=False)
          (norm): BatchNorm2d(384, eps=1e-05, momentum=0.1, affine=True, track_running_stats=True)
          (act): Act()
        )
      )
      (skip): Identity()
      (drop_path): DropPath(drop_prob=0.096)
    )
    (2): CNNBlock(
      (main): Sequential(
        (0): ConvX(
          (conv): Conv2d(384, 1536, kernel_size=(1, 1), stride=(1, 1), bias=False)
          (norm): BatchNorm2d(1536, eps=1e-05, momentum=0.1, affine=True, track_running_stats=True)
          (act): Act(
            (act): GELU(approximate='none')
          )
        )
        (1): ConvX(
          (conv): Conv2d(1536, 1536, kernel_size=(3, 3), stride=(1, 1), padding=(1, 1), groups=384, bias=False)
          (norm): BatchNorm2d(1536, eps=1e-05, momentum=0.1, affine=True, track_running_stats=True)
          (act): Act(
            (act): GELU(approximate='none')
          )
        )
        (2): SE(
          (se): Sequential(
            (0): AdaptiveAvgPool2d(output_size=1)
            (1): Conv2d(1536, 192, kernel_size=(1, 1), stride=(1, 1))
            (2): ReLU()
            (3): Conv2d(192, 1536, kernel_size=(1, 1), stride=(1, 1))
            (4): Sigmoid()
          )
        )
        (3): ConvX(
          (conv): Conv2d(1536, 384, kernel_size=(1, 1), stride=(1, 1), bias=False)
          (norm): BatchNorm2d(384, eps=1e-05, momentum=0.1, affine=True, track_running_stats=True)
          (act): Act()
        )
      )
      (skip): Identity()
      (drop_path): DropPath(drop_prob=0.100)
    )
  )
  (conv_head): ConvX(
    (conv): Conv2d(384, 512, kernel_size=(1, 1), stride=(1, 1), bias=False)
    (norm): BatchNorm2d(512, eps=1e-05, momentum=0.1, affine=True, track_running_stats=True)
    (act): Act(
      (act): GELU(approximate='none')
    )
  )
  (gap): AdaptiveAvgPool2d(output_size=1)
  (fc): Linear(in_features=512, out_features=512, bias=False)
  (norm): BatchNorm1d(512, eps=1e-05, momentum=0.1, affine=True, track_running_stats=True)
  (act): Act(
    (act): GELU(approximate='none')
  )
  (drop): Dropout(p=0.2, inplace=False)
  (classifier): Linear(in_features=512, out_features=1000, bias=False)
)
number of params: 15695352
LR = 0.00200000
Batch size = 1024
Number of training examples = 1281167
Number of training training per epoch = 1251
Param groups = {
  "decay": {
    "weight_decay": 0.05,
    "params": [
      "first_conv.conv.weight",
      "layer1.0.main.0.conv.weight",
      "layer1.0.main.1.conv.weight",
      "layer1.0.main.2.se.1.weight",
…
